history/24-8-22/MLP5_PReLU(33)/model_param.pth (torch, 88562 bytes, 11 tensors)

fc1.weight f4 [32, 11]
0.07722642 -0.080363736 -0.02394496 0.15218846 0.50183994 -0.0122051155 0.004886583 -0.26600614
-0.120212615 -0.30904952 0.28383055 0.25741214 0.015046264 -0.10076763 0.30421686 -0.11836111
0.17862515 0.07020632 0.07202116 0.05598295 0.33613935 -0.23743425 0.23179549 -0.2928893
-0.0026840775 -0.16981943 -0.24116667 0.24677375 0.07165328 0.3356886 -0.2071645 -0.08694231
-0.06287849 -0.24818912 0.039556887 -0.15909776 0.1601391 0.19214153 -0.17499998 -0.2999525
-0.47367278 0.2538437 -0.3515359 0.33586165 -0.16772017 -0.08813042 -0.106033534 0.052997082
0.27455035 0.16972359 -0.3475768 -0.086325675 -0.29283604 -0.16760236 0.470479 0.09827232
-0.2525816 0.32130414 0.20575754 -0.07072115 0.20214717 -0.09386681 0.060485408 0.10417639
0.063273415 -0.28916636 0.25448006 0.23543751 -0.08507252 -0.10686825 -0.026406378 0.041139916
0.13205636 0.025611557 0.19122241 -0.1831789 0.37323996 0.24178107 0.039786104 -0.014974379
-0.27361193 0.14351577 0.28469762 -0.3496641 -0.007499434 -0.05804061 -0.34316674 0.5308689
0.013230601 0.22480208 -0.25028807 0.09382778 0.110929266 -0.25846937 0.1010254 -0.12973377
0.26835665 -0.42155734 0.2165966 -0.17605218 -0.0353441 -0.15479223 0.19839197 0.4317809
0.053888634 -0.2821157 -0.38568223 -0.11927266 -0.43684462 0.24905394 0.17387214 0.24632889
0.28994295 0.34929186 -0.34070197 -0.083661 -0.21398282 0.0030664185 0.21260737 0.2168221
-0.7160769 -0.099092536 0.26821676 -0.09526937 0.05556252 0.133943 0.25322363 0.029658511
-0.5118821 0.21200961 0.0028658176 0.66078573 -0.14852639 -0.33706787 0.18447933 -0.2691653
0.6043811 0.07078665 0.14345524 -0.14891988 0.2896629 -0.45258483 0.57603884 -0.1507003
0.2954358 0.16919242 -0.2795164 0.44223085 0.22633827 -0.09108498 -0.10050648 0.017231029
-0.090925634 0.40004325 -0.01702899 0.2929236 0.26886857 -0.09577014 -0.18405491 -0.08007699
0.36537534 0.21186027 0.22701313 0.5236747 -0.62721777 0.25456113 -0.19063157 0.025758794
-0.1767591 -0.115294605 0.06937375 -0.2681862 -0.062386528 0.21956928 0.10619728 -0.13129333
-0.10535018 -0.14935489 -0.13141675 -0.14102505 0.2997695 0.092555046 0.20077172 -0.37838867
-0.1573702 -0.16997099 0.6561586 -0.20812836 -0.11840154 -0.082121104 0.21112263 0.58903587
-0.049672823 -0.25417298 -0.28139728 0.09759809 -0.054070473 0.22518022 -0.2987131 0.013017217
0.11789226 0.09533327 -0.39174214 -0.10052866 0.3045823 0.5211446 0.12350691 0.36008206
-0.17734681 0.16609466 -0.23652342 0.10563209 -0.092449196 -0.01689791 0.10074371 -0.034332097
-0.07027728 -0.22056647 0.115920156 -0.5142593 0.07179147 0.08895934 -0.053116143 0.036952134
-0.24002646 -0.13030295 0.14124516 0.11543688 0.27281606 0.3231485 -0.11632631 -0.2562758
-0.26861605 0.31287837 -0.14588478 -0.37326434 -0.15969406 0.1263035 0.23285408 0.24052024
0.27797532 -0.64573926 0.3188373 0.1983581 -0.28495508 0.09936126 0.34371406 -0.021813236
0.19005376 -0.3483386 0.09557646 -0.009423825 0.029590601 -0.29023114 0.022512732 -0.01614258
00000000: e328 9e3d be95 a4bd 3928 c4bc 4bd7 1b3e
00000010: 9578 003f f7f7 47bc a11f a03b f531 88be
00000020: 0832 f6bd bd3b 9ebe 3d52 913e 86cb 833e
00000030: 9b84 763c 425f cebd 50c2 9b3e 4f67 f2bd
00000040: 83e9 363e 55c8 8f3d d47f 933d 614e 653d
00000050: 751a ac3e f721 73be cc5b 6d3e 96f5 95be
00000060: 59e7 2fbb 25e5 2dbe 65f4 76be 42b2 7c3e
00000070: f4be 923d 60df ab3e ee22 54be cf0e b2bd
00000080: 70c6 80bd 4a25 7ebe 6706 223d 86ea 22be
00000090: 81fb 233e c0c0 443e 3233 33be 6093 99be
000000a0: 3d85 f2be cdf7 813e 83fc b3be 0ff6 ab3e
000000b0: d6be 2bbe b97d b4bd 1c28 d9bd 7813 593d
000000c0: dd91 8c3e 05cc 2d3e 96f5 b1be 84cb b0bd
000000d0: 9bee 95be f49f 2bbe a0e2 f03e 0043 c93d
000000e0: 6052 81be fa81 a43e 1bb2 523e 40d6 90bd
000000f0: abff 4e3e 3e3d c0bd 8cbf 773d 6e5a d53d
00000100: 7e95 813d 9d0d 94be 364b 823e 8816 713e
00000110: 803a aebd bedd dabd 3052 d8bc 5482 283d
00000120: c839 073e 54cf d13c cfcf 433e 4093 3bbe
00000130: 4f19 bf3e 7595 773e c1f6 223d 1957 75bc
00000140: dd16 8cbe ccf5 123e e3c3 913e 2c07 b3be
00000150: d0bd f5bb febb 6dbd 8db3 afbe 06e7 073f
00000160: 2ac5 583c 8432 663e c225 80be c728 c03d
00000170: e22e e33d 1956 84be 68e6 ce3d eed8 04be
00000180: 0b66 893e 5dd6 d7be 80cb 5d3e 0647 34be
00000190: fac4 10bd db81 1ebe 4427 4b3e 6312 dd3e
000001a0: 54ba 5c3d 7871 90be 2478 c5be 3945 f4bd
000001b0: 19aa dfbe ff07 7f3e 8a0b 323e a43d 7c3e
000001c0: 6773 943e 62d6 b23e 7d70 aebe 7556 abbd
000001d0: 501e 5bbe f7f5 483b bfb5 593e 9d06 5e3e
000001e0: d150 37bf 07f1 cabd b553 893e 961c c3bd
000001f0: 8695 633d 5b28 093e 87a6 813e 68f6 f23c
00000200: b50a 03bf 0c19 593e 71d0 3b3b 4129 293f
00000210: 4d17 18be 2994 acbe 26e8 3c3e 09d0 89be
00000220: b8b8 1a3f 97f8 903d eee5 123e 747e 18be
00000230: b24e 943e 33b9 e7be 4877 133f 2e51 1abe
00000240: 5c43 973e c740 2d3e c61c 8fbe 156c e23e
00000250: 38c5 673e c38a babd 57d6 cdbd 1628 8d3c
00000260: 3837 babd 78d2 cc3e 6180 8bbc 15fa 953e
00000270: 24a9 893e 2323 c4bd e478 3cbe 68ff a3bd
00000280: 7a12 bb3e e6f1 583e 2176 683e 8c0f 063f
00000290: 5891 20bf d655 823e ec34 43be 1b04 d33c
000002a0: 5600 35be 941f ecbd d313 8e3d b44f 89be
000002b0: 0489 7fbd c5d6 603e f67d d93d c271 06be
000002c0: d6c1 d7bd 7df0 18be 1d92 06be df68 10be
000002d0: 637b 993e 808d bd3d 1a97 4d3e 29bc c1be
000002e0: a725 21be e00c 2ebe 03fa 273f 9a1f 55be
000002f0: 827c f2bd 1c2f a8bd 8830 583e 0ecb 163f
00000300: bb75 4bbd f622 82be 4e13 90be 82e1 c73d
00000310: 0079 5dbd a595 663e ecf0 98be 2a46 553c
00000320: 7f71 f13d 173e c33d 6d92 c8be f8e1 cdbd
00000330: 36f2 9b3e bc69 053f 31f1 fc3d ad5c b83e
00000340: 679a 35be b814 2a3e 3233 72be a355 d83d
00000350: 0156 bdbd 7c6d 8abc b852 ce3d d09f 0cbd
00000360: 89ed 8fbd 2ddc 61be 8c67 ed3d 7fa6 03bf
00000370: 6807 933d 5030 b63d 5090 59bd 1f5b 173d
00000380: 7fc9 75be 236e 05be 92a2 103e 2c6a ec3d
00000390: 8cae 8b3e b873 a53e 7d3c eebd 9536 83be
000003a0: 0b88 89be 9831 a03e d262 15be 811c bfbe
000003b0: d786 23be b455 013e 4d71 6e3e f04a 763e
000003c0: c852 8e3e 2b4f 25bf a53e a33e 631e 4b3e
000003d0: a2e5 91be eb7d cb3d 4afb af3e acb1 b2bc
000003e0: 749d 423e 7059 b2be 97bd c33d 6366 1abc
000003f0: fd67 f23c 2d99 94be 9f6c b83c 723d 84bc

fc1.bias f4 [32]
-0.023203038 -0.060306206 0.15096177 -0.31672433 0.18105698 0.2089202 -0.2790575 0.03904992
-0.15155783 0.12810627 -0.17981236 -0.3301327 -0.038258925 -0.19911146 0.033973973 0.09331356
-0.19430368 -0.10260901 0.07882546 0.024970438 0.29826492 0.2872735 0.14510392 0.08186728
-0.15064976 -0.25501487 0.15429196 -0.24240813 -0.21603349 0.29504642 -0.04045936 0.16074005
00000000: 4c14 bebc a403 77bd b995 1a3e b129 a2be
00000010: 0067 393e 2def 553e a0e0 8ebe cff2 1f3d
00000020: fa31 1bbe 4a2e 033e bb20 38be 2707 a9be
00000030: 64b5 1cbd e0e3 4bbe 4b28 0b3d 2e1b bf3d
00000040: 8bf7 46be ac24 d2bd 3e6f a13d ce8e cc3c
00000050: 2eb6 983e 8315 933e 1f96 143e 08aa a73d
00000060: ee43 1abe 4f91 82be b6fe 1d3e d639 78be
00000070: e237 5dbe 5310 973e b7b8 25bd 0a99 243e

fc2.weight f4 [64, 32]
0.023969635 -0.094227575 -0.20860998 0.026010007 -0.015704734 -0.068565376 0.08294522 0.08412856
0.026365304 0.12903367 -0.09718239 -0.037898753 0.06230259 0.066162914 -0.052760486 -0.042373646
0.25686806 0.0823911 -0.0034080525 -0.13814916 -0.235946 -0.20433955 0.18863629 -0.03780295
-0.051141046 -0.14358005 0.08581953 0.12997088 0.24088728 0.052811313 0.09534603 -0.15876769
-0.04643927 -0.023665393 0.09744281 -0.05094167 0.12821557 -0.0650816 0.17586868 0.20747699
-0.016039956 0.19746132 -0.107253544 0.122343525 -0.022765685 -0.008750286 -0.17986692 -0.13047022
-0.047074314 -0.011048589 -0.078554615 -0.1325002 -0.17328084 -0.113340974 -0.0689031 -0.1823124
0.023744434 -0.14960875 -0.02789419 0.17559247 -0.063557014 -0.15936035 0.13540632 -0.098080374
-0.24103902 0.15728453 0.15644412 0.03474428 -0.120464675 -0.1540448 -0.019782033 -0.0791814
-0.12176554 -0.17866284 0.052242294 -0.06722483 -0.05218756 0.14046176 0.07722333 -0.09643933
0.0076766424 0.079519324 0.041774094 0.115287654 0.14246011 -0.052922446 -0.06079552 0.18996407
-0.018137971 -0.23294678 0.15831046 -0.20142283 -0.022410925 -0.084970936 -0.10744898 0.104640886
0.2467922 0.027508033 -0.12531646 0.12446903 0.04010741 -0.04523356 0.06797644 0.20702052
-0.07863135 0.21286294 -0.10075505 -0.10894047 0.2019798 0.1832387 0.060054477 0.13691941
-0.067654304 0.15118213 0.037011884 0.0066164467 0.012305662 -0.23047155 0.22925247 -0.16805758
-0.08090236 -0.002645453 -0.1598566 0.11842258 0.1469428 0.14717618 0.20826796 -0.1820087
-0.055107422 0.055928152 -0.0673834 0.2463366 -0.06479085 -0.043573022 0.11213489 0.2433065
0.19221298 0.08776969 -0.18382289 0.10787804 0.23789206 0.20652375 -0.04598018 0.034561917
0.12947302 0.11315145 -0.21588615 -0.19023994 -0.07665056 -0.21665892 0.089445576 0.023940744
-0.09160765 0.07387688 -0.22015965 0.27008608 0.16653378 0.13049805 0.06447571 -0.23825368
-0.06460878 0.0829227 -0.13497949 -0.23708537 0.101767145 0.18737085 -0.057154708 -0.099775195
-0.0029256665 -0.041808866 -0.07255499 0.06158454 -0.3303285 -0.07746834 0.24317874 -0.114730254
-0.16571657 -0.19702956 0.18651235 0.17543413 0.062918074 0.100123726 -0.10880261 -0.026507268
0.011827017 -0.0768283 0.12484486 0.008545329 -0.18493468 0.17533824 -0.0130074965 0.0071216268
0.19122551 -0.04263939 -0.21657272 0.13677429 0.021699902 -0.16874196 0.053180058 0.18119481
0.19680001 0.009820433 0.012868829 0.15150319 0.21038115 0.0114332745 -0.11019839 -0.07791989
0.22280559 0.14338787 -0.27367303 -0.04258815 -0.099072 -0.018541416 0.020982534 -0.22330646
-0.16664897 -0.116350874 -0.19071221 0.19990268 -0.050474465 0.058259845 0.09742829 -0.06777438
0.09363215 -0.12513742 -0.20941247 0.15923573 0.007040268 0.057338066 0.22617394 0.022077562
0.26253456 0.048711743 -0.19986454 -0.056245007 0.14090635 0.1680832 -0.11542786 -0.21201997
0.1053014 -0.04582121 -0.08694731 -0.018148994 0.013446799 -0.083231464 0.008424609 -0.28819072
-0.25126064 0.11263553 -0.13774957 0.062491436 0.20140539 -0.12770335 0.107985795 -0.021448929
00000000: f85b c43c 63fa c0bd db9d 55be f012 d53c
00000010: 37a7 80bc 016c 8cbd 2fdf a93d 984b ac3d
00000020: 0dfc d73c 6721 043e 9007 c7bd b93b 1bbd
00000030: 0031 7f3d 6c80 873d 611b 58bd fd8f 2dbd
00000040: 3684 833e aabc a83d a259 5fbb f976 0dbe
00000050: d49b 71be 633e 51be df29 413e 44d7 1abd
00000060: 4679 51bd a606 13be 26c2 af3d 1617 053e
00000070: 28ab 763e ad50 583d c844 c33d ff93 22be
00000080: 1b37 3ebd eddd c1bc 1990 c73d 36a8 50bd
00000090: f14a 033e 8049 85bd eb16 343e d974 543e
000000a0: 3a66 83bc 4d33 4a3e bfa7 dbbd 3e8f fa3d
000000b0: 1a7f babc 5c5d 0fbc 092f 38be fc99 05be
000000c0: ffd0 40bd 2405 35bc 3ee1 a0bd 22ae 07be
000000d0: 8870 31be 501f e8bd 121d 8dbd 1ab0 3abe
000000e0: b083 c23c 0933 19be 5b82 e4bc 83ce 333e
000000f0: 2e2a 82bd 5c2f 23be f4a7 0a3e 5dde c8bd
00000100: efd2 76be 320f 213e e332 203e 0550 0e3d
00000110: 2fb6 f6bd ecbd 1dbe ee0d a2bc dc29 a2bd
00000120: 3660 f9bd 64f3 36be 04fc 553d 2cad 89bd
00000130: 9fc2 55bd 35d5 0f3e 4427 9e3d fc81 c5bd
00000140: 588c fb3b 07db a23d 501b 2b3d ef1b ec3d
00000150: 10e1 113e 35c5 58bd b904 79bd f185 423e
00000160: 1596 94bc 9a89 6ebe 231c 223e c941 4ebe
00000170: 1e97 b7bc 3e05 aebd 360e dcbd f64d d63d
00000180: 18b7 7c3e 8758 e13c f552 00be 9ee9 fe3d
00000190: ab47 243d d346 39bd 3b37 8b3d 30fd 533e
000001a0: 7909 a1bd bef8 593e aa58 cebd 2e1c dfbd
000001b0: cbd3 4e3e eda2 3b3e affb 753d 9a34 0c3e
000001c0: 578e 8abd 7dcf 1a3e c699 173d c7ce d83b
000001d0: b09d 493c bc00 6cbe 29c1 6a3e 4917 2cbe
000001e0: 23b0 a5bd 565f 2dbb 73b1 23be 8a87 f23d
000001f0: 2c78 163e 5ab5 163e 3244 553e 7d60 3abe
00000200: 52b8 61bd eb14 653d 4f00 8abd a93f 7c3e
00000210: 11b1 84bd a079 32bd faa6 e53d 5725 793e
00000220: 7bd3 443e 98c0 b33d 113c 3cbe 29ef dc3d
00000230: fa99 733e f67a 533e b755 3cbd cc90 0d3d
00000240: 9394 043e f3bb e73d 4211 5dbe 42ce 42be
00000250: f8fa 9cbd d6db 5dbe 3e2f b73d 611f c43c
00000260: cb9c bbbd c34c 973d 8871 61be b948 8a3e
00000270: d587 2a3e 48a1 053e d70b 843d c6f8 73be
00000280: 9c51 84bd 60d3 a93d 1038 0abe 82c6 72be
00000290: 4b6b d03d 25de 3f3e 0e1b 6abd f056 ccbd
000002a0: 8abc 3fbb c63f 2bbd b697 94bd 1240 7c3d
000002b0: d120 a9be b9a7 9ebd d903 793e b2f7 eabd
000002c0: 9bb1 29be 1ec2 49be 18fd 3e3e 01a5 333e
000002d0: 31db 803d ab0d cd3d e7d3 debd c525 d9bc
000002e0: 1bc6 413c 2858 9dbd a9ae ff3d b501 0c3c
000002f0: 845f 3dbe de8b 333e 651d 55bc 895c e93b
00000300: 9fd0 433e a4a6 2ebd 3dc5 5dbe 8f0e 0c3e
00000310: fec3 b13c b1ca 2cbe 55d3 593d 228b 393e
00000320: f185 493e e2e5 203c c8d7 523c a723 1b3e
00000330: 286e 573e a152 3b3c b2af e1bd 7794 9fbd
00000340: 2627 643e 45d4 123e df1e 8cbe e970 2ebd
00000350: 43e6 cabd 2be4 97bc 90e3 ab3c 73aa 64be
00000360: 07a6 2abe 5e49 eebd 104a 43be 4ab3 4c3e
00000370: 50be 4ebd e0a1 6e3d 7c88 c73d 4bcd 8abd
00000380: 36c2 bf3d 0624 00be 3970 56be b10e 233e
00000390: 0cb2 e63b 52db 6a3d 249a 673e 01dc b43c
000003a0: ee6a 863e f785 473d 4aa9 4cbe 2a61 66bd
000003b0: c149 103e 011e 2c3e 7165 ecbd c31b 59be
000003c0: 43a8 d73d 05af 3bbd 6e11 b2bd 33ad 94bc
000003d0: f64f 5c3c 4275 aabd 5f07 0a3c bc8d 93be
000003e0: 3ca5 80be 75ad e63d 390e 0dbe 05f7 7f3d
000003f0: 373d 4e3e abc4 02be a827 dd3d aab5 afbc

fc2.bias f4 [64]
0.01047841 -0.0422775 -0.119885266 -0.02792956 -0.12418578 -0.049100976 -0.08943207 0.07490183
-0.14422871 -0.014772883 -0.071763895 0.014361235 -0.15113604 0.16859943 0.022931086 -0.13956109
-0.04514704 -0.24531537 -0.03764276 0.116352744 0.0054953317 0.1369273 -0.041057024 -0.2040601
0.055909883 -0.17344923 -0.07959471 0.04251987 -0.09281224 0.055340633 -0.045378324 -0.0054182024
0.12895179 -0.049084503 0.16382533 -0.026973272 -0.20656958 -0.119459696 -0.17428617 0.06120075
0.09852352 -0.1137502 -0.10042652 0.12655422 0.18295224 -0.096341774 0.034371693 -0.06655573
-0.06339829 0.1497661 -0.06690211 -0.07344808 0.1768048 -0.02739479 -0.036130283 -0.05810739
-0.07301567 0.19882144 -0.07935199 -0.1280434 -0.08479502 0.16768138 -0.22466566 -0.23752269
00000000: a3ad 2b3c 2c2b 2dbd 6886 f5bd 88cc e4bc
00000010: 1d55 febd 1b1e 49bd 2928 b7bd 2166 993d
00000020: b1b0 13be f609 72bc f3f8 92bd 634b 6b3c
00000030: 68c3 1abe 54a5 2c3e f9d9 bb3c 1ae9 0ebe
00000040: 1aec 38bd f433 7bbe 4b2f 1abd 594a ee3d
00000050: 2f12 b43b ac36 0c3e 692b 28bd 21f5 50be
00000060: c301 653d ad9c 31be 8d02 a3bd 5129 2e3d
00000070: 5814 bebd dcac 623d 9fde 39bd 2d8b b1bb
00000080: f00b 043e d50c 49bd d4c1 273e 0df7 dcbc
00000090: fa86 53be 49a7 f4bd 1378 32be a3ad 7a3d
000000a0: b3c6 c93d ddf5 e8bd 6bac cdbd 6e97 013e
000000b0: d557 3b3e d64e c5bd 55c9 0c3d 5f4e 88bd
000000c0: f6d6 81bd 495c 193e f903 89bd f26b 96bd
000000d0: 510c 353e 0a6b e0bc 59fd 13bd 0402 6ebd
000000e0: 3d89 95bd d997 4b3e 4c83 a2bd cf1d 03be
000000f0: 03a9 adbd abb4 2b3e c10e 66be 2639 73be

fc3.weight f4 [128, 64]
0.15083441 0.16734193 -0.17478448 0.15934588 0.14536005 -0.21432972 0.037233807 0.22799939
0.20935558 0.045240164 0.14270148 -0.19579665 0.18872347 -0.19302776 0.12609011 0.055796217
0.24536483 0.13309167 -0.17749004 -0.04192674 0.21382938 -0.03001549 -0.059013635 0.091722175
0.12430647 0.09957137 0.089815795 -0.045803517 0.08674604 -0.18934564 -0.19186956 -0.051319707
-0.08250104 0.21111767 0.13413689 -0.09753288 0.1582583 0.21086006 0.17409453 -0.24242638
0.17511417 0.21571645 0.24126059 -0.13544263 -0.10966732 0.23379077 -0.034130502 0.06460386
-0.1513098 -0.17556396 -0.11195479 -0.11379579 -0.10096647 0.2796024 -0.051976815 0.08158867
0.120182216 -0.18614219 -0.17065994 0.10099925 0.23567012 -0.10840666 0.07341774 0.20146959
0.24035111 0.028396431 0.031070678 0.079023235 0.17100467 0.009722572 0.21937203 0.21430105
0.045240484 0.17185453 0.1677915 -0.08479684 0.22376108 -0.061700657 0.14388567 0.10239545
0.13666739 0.119804524 -0.2365831 -0.059560645 0.23173183 -0.2077028 -0.070128255 0.039354198
0.018192112 0.0441482 0.089971766 -0.03977746 0.1093677 -0.18229043 -0.07014098 0.023429757
-0.09677912 0.15071957 0.019346852 -0.077504516 0.12639503 0.18898542 0.23379485 -0.17574337
0.10562525 0.062175006 0.21966714 -0.24763541 0.103828214 0.22222745 -0.13062638 0.104885526
-0.103163466 0.03300048 -0.13311304 0.032925267 -0.2357113 0.056471813 -0.11144114 0.21777943
0.15889698 -0.24531879 -0.067302935 0.061341483 0.21339059 -0.23067755 0.193342 0.060243916
-0.00444137 -0.14533234 0.084543794 -0.08768695 -0.0081979055 0.12047577 0.05868005 0.054041885
-0.097070284 -0.10061984 0.085516036 0.024663143 -0.04766876 0.025746064 -0.110659204 -0.003963733
-0.033299353 -0.0007999255 0.04461941 0.02197043 -0.0971368 0.060327426 -0.054697808 -0.099767104
-0.015950803 0.0067268917 0.023430156 0.03630756 -0.04700348 0.10230344 -0.061669912 -0.011634287
0.14554514 -0.038002566 -0.0993389 0.031665407 -0.09727898 -0.06621598 -0.14805643 -0.09446864
0.008747011 0.022370398 -0.12283333 0.001067731 0.09301209 0.011858946 -0.073563814 -0.11447845
-0.07522021 -0.070657395 0.1414548 -0.0983877 0.10717743 0.07627529 0.00915922 -0.08561235
0.07382823 0.031124175 0.04370417 -0.050621744 0.0069888597 0.010438617 0.031892575 -0.058732104
0.13997535 0.16403137 -0.09474644 0.15052646 0.15456064 -0.06256226 0.08751349 0.16123098
0.05830422 0.11365255 0.09193354 -0.16347001 0.058457147 -0.20577826 0.08138156 0.21818
0.21245053 0.22498444 -0.06559018 -0.20230722 0.17384052 -0.10074408 -0.010402812 0.08668219
-0.0038686444 0.27685064 0.23692903 0.11750511 0.1204194 -0.033525985 -0.018641787 -0.03747617
-0.23270911 0.19767514 0.11247819 -0.10610252 0.10656622 0.11110405 0.07268957 -0.04749199
0.13344073 0.026552115 0.027778246 -0.111768425 -0.03336203 0.13385001 -0.054556184 0.19674137
-0.21387866 0.05433395 -0.010337506 -0.17852537 -0.161769 0.25793728 -0.23027912 0.047981713
0.037338834 -0.14332956 -0.17242685 0.2023206 0.13584693 -0.022037175 0.21052259 0.12927052
00000000: 5674 1a3e af5b 2b3e b4fa 32be 912b 233e
00000010: 44d9 143e 4079 5bbe 7a82 183d ac78 693e
00000020: 4f61 563e c04d 393d 5620 123e eb7e 48be
00000030: ba40 413e 12a9 45be c41d 013e 938a 643d
00000040: eb40 7b3e 2f49 083e f3bf 35be 60bb 2bbd
00000050: 17f6 5a3e 0be3 f5bc 48b8 71bd d6d8 bb3d
00000060: 6494 fe3d 13ec cb3d 58f1 b73d 789c 3bbd
00000070: e8a7 b13d d3e3 41be 7479 44be 9d34 52bd
00000080: 4ef6 a8bd 3b2f 583e 2e5b 093e 52bf c7bd
00000090: 770e 223e b3eb 573e d645 323e 9f3e 78be
000000a0: 2151 333e c6e4 5c3e 040d 773e 79b1 0abe
000000b0: 4399 e0bd d966 6f3e 6dcc 0bbd 074f 843d
000000c0: f5f0 1abe 0ac7 33be 8e48 e5bd c40d e9bd
000000d0: 82c7 cebd 0c28 8f3e a4e5 54bd f617 a73d
000000e0: 1822 f63d 0f9c 3ebe 7bc1 2ebe b2d8 ce3d
000000f0: 8253 713e 5004 debd 0a5c 963d 0b4e 4e3e
00000100: 9a1e 763e a29f e83c ef87 fe3c efd6 a13d
00000110: d91b 2f3e 6c4b 1f3c 10a3 603e bc71 5b3e
00000120: 164e 393d a2fa 2f3e 89d1 2b3e f7a9 adbd
00000130: a021 653e d4b9 7cbd c456 133e b5b4 d13d
00000140: 89f2 0b3e 135c f53d d742 72be ddf5 73bd
00000150: 1c4b 6d3e 0bb0 54be 679f 8fbd de31 213d
00000160: a007 953c bed4 343d 1e43 b83d b1ed 22bd
00000170: 2cfc df3d 58aa 3abe 13a6 8fbd c3ef bf3c
00000180: 2234 c6bd 3b56 1a3e 4a7d 9e3c b0ba 9ebd
00000190: b36d 013e 6585 413e eb67 6f3e 12f6 33be
000001a0: 0d52 d83d 38ab 7e3d 6cf0 603e 2394 7dbe
000001b0: e3a3 d43d 988f 633e ecc2 05be 39ce d63d
000001c0: 5e47 d3bd 832b 073d c94e 08be a5dc 063d
000001d0: 4e5e 71be fd4e 673d 413b e4bd 9201 5f3e
000001e0: e4b5 223e d934 7bbe 1fd6 89bd 3541 7b3d
000001f0: 1083 5a3e bc36 6cbe 72fb 453e 53c2 763d
00000200: e988 91bb 00d2 14be 4c25 ad3d 3795 b3bd
00000210: 8250 06bc 00bc f63d 7e5a 703d 065b 5d3d
00000220: c9cc c6bd c611 cebd 0823 af3d 5c0a ca3c
00000230: 5140 43bd 69e9 d23c 4ba1 e2bd 34e2 81bb
00000240: e764 08bd 17b2 51ba d8c2 363d 55fb b33c
00000250: a9ef c6bd e419 773d cf0a 60bd b252 ccbd
00000260: 42ab 82bc 426d dc3b 99f0 bf3c 3cb7 143d
00000270: b986 40bd 7784 d13d 9799 7cbd bd9d 3ebc
00000280: c909 153e 94a8 1bbd 3172 cbbd 96b3 013d
00000290: 343a c7bd 3e9c 87bd 1b9c 17be c678 c1bd
000002a0: a04f 0f3c 2042 b73c 0a90 fbbd 1bf3 8b3a
000002b0: 1f7d be3d 064c 423c a0a8 96bd ad73 eabd
000002c0: 0e0d 9abd d3b4 90bd 87d9 103e 7e7f c9bd
000002d0: d77f db3d 3836 9c3d 8e10 163c 8755 afbd
000002e0: 4133 973d 20f8 fe3c 2503 333d bf58 4fbd
000002f0: ce02 e53b bc06 2b3c caa1 023d 1391 70bd
00000300: b355 0f3e d7f7 273e 6c0a c2bd 9c23 1a3e
00000310: 2545 1e3e a420 80bd 463a b33d bc19 253e
00000320: 68d0 6e3d abc2 e83d a747 bc3d af64 27be
00000330: c370 6f3d 89b7 52be 60ab a63d 946a 5f3e
00000340: a28c 593e 5262 663e 2554 86bd a029 4fbe
00000350: 4003 323e ea52 cebd 8e70 2abc 6f86 b13d
00000360: 1589 7dbb 5ebf 8d3e 869d 723e 85a6 f03d
00000370: 729e f63d 8b52 09bd a9b6 98bc 9d80 19bd
00000380: 4c4b 6ebe 5a6b 4a3e f75a e63d 474c d9bd
00000390: 643f da3d 858a e33d 45de 943d f686 42bd
000003a0: b0a4 083e d283 d93c 348f e33c d8e6 e4bd
000003b0: a0a6 08bd fa0f 093e 4e76 5fbd 9276 493e
000003c0: 0203 5bbe 478d 5e3d a55e 29bc 5bcf 36be
000003d0: c6a6 25be 5b10 843e 4ace 6bbe 7988 443d
000003e0: 9bf0 183d fcc4 12be aa90 30be 222d 4f3e
000003f0: 751b 0b3e 4e87 b4bc 3c93 573e 7e5f 043e

fc3.bias f4 [128]
-0.031357612 -0.013490106 0.11230164 -0.21634565 -0.12510447 -0.22745086 0.100357786 0.12334466
0.0004322337 0.035102576 0.13213342 -0.0709582 -0.15897638 0.043020923 -0.15659818 -0.22495814
0.010354771 0.17001863 -0.22350402 -0.1754097 -0.24683265 -0.059295706 -0.13371605 0.18664473
0.077286236 -0.07903419 -0.07453682 0.15833159 -0.0020756554 -0.114158474 -0.13619876 -0.0015700894
0.15651043 -0.07189412 0.06500463 0.032898735 0.06639994 -0.1544741 -0.14494832 0.16165724
-0.22699977 0.09893906 0.12341237 -0.072905675 0.034009185 0.0050717117 -0.008988411 0.0026360778
-0.09277587 0.1870181 -0.16693452 -0.084769174 -0.19604248 0.074219845 0.044065047 -0.20104106
-0.22025211 0.1770706 -0.16761883 0.057485174 0.0013795986 -0.051485747 -0.006838991 -0.19127871
-0.103907615 -0.15586507 0.12204011 0.033008534 -0.12719932 -0.11675729 0.005456349 -0.16601689
-0.13918039 0.092596844 0.10314305 -0.20810072 0.12337212 -0.12324711 0.14408357 0.038339872
-0.18990646 -0.19294117 -0.100518 -0.06951544 -0.012515012 0.03305034 -0.12388855 -0.07494699
-0.071811214 0.102912664 -0.17831433 -0.2374557 0.161582 0.10498468 -0.21249758 0.052357037
-0.17419635 0.018291477 0.18889467 0.09426251 0.019371247 0.050583567 0.091894515 -0.14247568
-0.16172062 0.12138721 0.13346162 0.18313861 -0.030922474 -0.17235307 -0.046621498 -0.24364628
-0.16729736 -0.2291466 0.14706926 -0.03502881 -0.20443338 0.1362778 -0.23409459 0.19011626
-0.12775737 0.086100556 -0.18881083 0.108382374 0.14150439 0.18024793 0.14371434 0.06758761
00000000: d770 00bd 9b05 5dbc 67fe e53d b789 5dbe
00000010: 631b 00be e1e8 68be 6288 cd3d 209c fc3d
00000020: 6d9d e239 b8c7 0f3d fc4d 073e 8852 91bd
00000030: b4ca 22be b536 303d 465b 20be 6d5b 66be
00000040: 0fa7 293c 5d19 2e3e 3dde 64be 9a9e 33be
00000050: b3c1 7cbe 0ee0 72bd dcec 08be cc1f 3f3e
00000060: 3f48 9e3d addc a1bd c3a6 98bd ad21 223e
00000070: b807 08bb ebcb e9bd b077 0bbe 75cb cdba
00000080: 4544 203e 393d 93bd 2621 853d d3c0 063d
00000090: b1fc 873d 752e 1ebe 556d 14be 7a89 253e
000000a0: a172 68be 90a0 ca3d a0bf fc3d 924f 95bd
000000b0: 374d 0b3d 9a30 a63b 2144 13bc 0cc2 2c3b
000000c0: 4601 bebd ac81 3f3e e2f0 2abe 769b adbd
000000d0: 5cbf 48be 9300 983d 8d7d 343d b5dd 4dbe
000000e0: c589 61be ff51 353e 45a4 2bbe 9375 6b3d
000000f0: a6d3 b43a b8e2 52bd 9d19 e0bb 91de 43be
00000100: 84cd d4bd 189b 1fbe 2af0 f93d f533 073d
00000110: 8a40 02be 721e efbd 2ccb b23b 5500 2abe
00000120: 4e85 0ebe 6aa3 bd3d aa3c d33d 5b18 55be
00000130: 86aa fc3d fb68 fcbd a58a 133e 450a 1d3d
00000140: d776 42be 5f92 45be 62dc cdbd 1c5e 8ebd
00000150: c40b 4dbc cb5f 073d 48b9 fdbd cf7d 99bd
00000160: c211 93bd e0c3 d23d 0898 36be 9627 73be
00000170: c075 253e 3502 d73d f798 59be 5574 563d
00000180: 8760 32be 02d8 953c 9b6d 413e b40c c13d
00000190: 73b0 9e3c b730 4f3d 3133 bc3d 25e5 11be
000001a0: 179a 25be dc99 f83d 2aaa 083e b088 3b3e
000001b0: 2151 fdbc 537d 30be 2ff6 3ebd 697e 79be
000001c0: 0050 2bbe 68a5 6abe 5399 163e 5f7a 0fbd
000001d0: fc56 51be 688c 0b3e 7eb6 6fbe d6ad 423e
000001e0: d4d2 02be 7d55 b03d a057 41be 94f7 dd3d
000001f0: 87e6 103e ea92 383e da29 133e 5f6b 8a3d

fc4.weight f4 [64, 128]
-0.023751082 0.10898889 -0.15866403 0.08817147 0.054739375 -0.025087813 -0.135324 0.014536742
-0.05050252 -0.05085853 -0.064956516 -0.023191392 0.1153061 0.0014169029 0.0020764172 0.027760183
-0.07067126 -0.022843238 0.052892186 0.08173651 -0.02777854 0.1322521 0.119418465 -0.10550468
0.013787863 0.01911792 -0.087745406 -0.120988205 0.02496574 -0.0313309 0.10745352 -0.03900096
-0.018571794 -0.025181 -0.078850545 -0.00012787098 -0.045469437 0.011554319 0.106853165 0.03298586
-0.023784619 -0.11711609 -0.030069131 0.007189499 -0.0904376 0.088768594 -0.008487934 -0.06771818
0.10937976 -0.11221166 0.10150791 0.073694006 -0.029947473 -0.113215365 -0.021400034 0.12729736
0.058626115 -0.075320035 0.014213098 -0.031972095 0.009762295 0.06507287 -0.076185584 -0.0049768817
0.005018921 -0.009865521 0.029801544 -0.06318183 0.1053146 0.10348772 -0.08570216 0.08174461
0.10718131 -0.045473382 -0.07403934 0.010437616 -0.12698837 -0.0114816185 -0.13048449 -0.08938413
0.05891576 0.059016258 0.03194367 0.058564745 -0.070506826 -0.08376208 0.08311995 0.011390951
-0.15128776 -0.09180004 -0.042308796 0.05426931 -0.121052355 -0.01859079 0.0022230553 -0.09409918
-0.03649979 -0.12406823 -0.09281562 -0.052402094 -0.14034425 -0.029248917 -0.13693373 -0.019760206
0.0020238417 0.030717544 -0.05450647 -0.07887487 -0.13507424 -0.034926616 -0.0067037414 0.031351272
0.016246073 0.01567881 -0.02979334 -0.03335241 0.010704233 0.0015533412 0.06527136 -0.091616504
0.11771809 -0.1036483 0.019727582 -0.08432297 -0.094442904 -0.08536286 -0.038312413 -0.14567946
-0.011674158 -0.03887477 0.048962552 -0.030087413 -0.09897034 -0.04757025 0.036121268 0.015788082
-0.03531828 0.02822268 0.08619514 -0.020168154 -0.11324036 0.09949098 -0.13701072 -0.082600825
0.0286968 0.0833091 -0.12669857 -0.125123 -0.05537897 -0.10363318 -0.15948851 0.10654389
0.011992922 -0.12680385 0.06045176 0.13126151 -0.022426419 -0.118969955 -0.112764105 0.12791574
-0.027311107 -0.035314918 -0.02142141 0.0013303523 0.11208748 -0.16869472 -0.17702773 0.12172774
-0.08474053 0.13154763 -0.011662332 -0.09000861 -0.013099324 -0.09132169 -0.03719703 0.07660185
-0.12259613 0.13981827 -0.0076560653 -0.07714358 -0.1511315 0.08737613 0.085257396 -0.15803619
-0.17076729 0.1092769 -0.10052609 0.0069730897 -0.039098185 -0.16732548 -0.03153064 -0.117531896
-0.13280101 -0.16862582 0.13611768 0.10000582 -0.14829968 -0.057640713 0.12340771 -0.010382068
-0.037103996 0.024839561 0.07749086 -0.108515225 -0.025702938 -0.029149942 0.030945309 0.026728366
-0.07960416 -0.16279389 -0.048332363 -0.030924836 -0.040865827 0.013551021 -0.034251608 -0.15097976
0.12226387 0.090604484 -0.060138494 -0.09171285 0.13675767 -0.014128172 -0.03904277 -0.03459943
-0.03874723 0.10685758 -0.007372074 0.1099219 0.07505395 0.056697596 0.0040155435 0.00019357313
-0.13463038 -0.031363074 0.14049043 0.08164473 0.11704495 -0.04979128 -0.026192265 -0.09834896
-0.022724336 -0.13488992 0.11847892 -0.031632226 -0.015273171 0.07014692 -0.10591044 0.13218726
-0.06451325 0.023129325 -0.15773962 -0.015010365 0.101829216 0.014149426 0.057835627 0.036373366
00000000: a191 c2bc 9135 df3d d378 22be 3e93 b43d
00000010: 6536 603d f584 cdbc 6092 0abe 842b 6e3c
00000020: bbdb 4ebd 0951 50bd ec07 85bd e0fb bdbc
00000030: 9b25 ec3d 5fb7 b93a 8014 083b 5369 e33c
00000040: 18bc 90bd be21 bbbc 7aa5 583d 7965 a73d
00000050: d28f e3bc 186d 073e ab91 f43d d612 d8bd
00000060: 7de6 613c 2f9d 9c3c ddb3 b3bd aac8 f7bd
00000070: f484 cc3c d454 00bd 9710 dc3d 78bf 1fbd
00000080: e023 98bc 6248 cebc 657c a1bd 1b15 06b9
00000090: 293e 3abd 544e 3d3c d5d5 da3d 2e1c 073d
000000a0: f6d7 c2bc 90da efbd 8a53 f6bc e495 eb3b
000000b0: 5937 b9bd 4fcc b53d fa10 0bbc d4af 8abd
000000c0: 7f02 e03d 3acf e5bd 61e3 cf3d e2ec 963d
000000d0: 6754 f5bc 75dd e7bd 204f afbc 3d5a 023e
000000e0: f021 703d 6441 9abd 0ede 683c 2cf5 02bd
000000f0: 08f2 1f3c ed44 853d 3007 9cbd 1c15 a3bb
00000100: c375 a43b ffa2 21bc 5e22 f43c 7a65 81bd
00000110: 2eaf d73d 5ff1 d33d 9d84 afbd b869 a73d
00000120: e081 db3d 4c42 3abd f0a1 97bd 8902 2b3c
00000130: 3d09 02be 661d 3cbc ba9d 05be 070f b7bd
00000140: a751 713d 08bb 713d 5ed7 023d 96e1 6f3d
00000150: e265 90bd 748b abbd cb3a aa3d 1da1 3a3c
00000160: 2eeb 1abe a901 bcbd fd4b 2dbd 7f49 5e3d
00000170: 4cea f7bd b64b 98bc aeb0 113b 12b7 c0bd
00000180: ce80 15bd 7c17 febd 1e16 bebd 94a3 56bd
00000190: 67b6 0fbe 6d9b efbc 5b38 0cbe 28e0 a1bc
000001a0: 6ea2 043b 5ca3 fb3c 2d42 5fbd 2689 a1bd
000001b0: e750 0abe 360f 0fbd 0fab dbbb 316a 003d
000001c0: 7c16 853c d970 803c 2a11 f4bc 899c 08bd
000001d0: cf60 2f3c 7b99 cb3a feac 853d 6fa1 bbbd
000001e0: 2f16 f13d 8f45 d4bd bd9b a13c 85b1 acbd
000001f0: 486b c1bd b9d2 aebd 7aed 1cbd ff2c 15be
00000200: f844 3fbc 273b 1fbd f58c 483d e179 f6bc
00000210: f6b0 cabd 06d9 42bd e5f3 133d 0256 813c
00000220: e7a9 10bd 4033 e73c 1487 b03d af37 a5bc
00000230: 90ea e7bd edc1 cb3d 8a4c 0cbe 9f2a a9bd
00000240: 8d15 eb3c f69d aa3d 45bd 01be 3e20 00be
00000250: 0fd5 62bd a23d d4bd f550 23be af33 da3d
00000260: f67d 443c ded8 01be 449c 773d 6b69 063e
00000270: 9cb7 b7bc 85a6 f3bd def0 e6bd 58fc 023e
00000280: 8bbb dfbc 60a6 10bd f47b afbc 375f ae3a
00000290: 1f8e e53d 4fbe 2cbe c246 35be 654c f93d
000002a0: 718c adbd 6cb4 063e 5e13 3fbc 6f56 b8bd
000002b0: 8c9e 56bc de06 bbbd ea5b 18bd 6ee1 9c3d
000002c0: ae13 fbbd 852c 0f3e bbdf fabb 74fd 9dbd
000002d0: 37c2 1abe 42f2 b23d 6e9b ae3d 3dd4 21be
000002e0: 9fdd 2ebe 91cc df3d 9fe0 cdbd 847e e43b
000002f0: 6b25 20bd 5f57 2bbe 4626 01bd 90b4 f0bd
00000300: fdfc 07be 3fac 2cbe 6f62 0b3e dacf cc3d
00000310: dfdb 17be ab18 6cbd 2ebd fc3d 8d19 2abc
00000320: 5cfa 17bd 567c cb3c 87b3 9e3d 3b3d debd
00000330: f88e d2bc dccb eebc 0481 fd3c 72f5 da3c
00000340: 8107 a3bd 71b3 26be 28f8 45bd 1556 fdbc
00000350: ed62 27bd 1a05 5e3c 6a4b 0cbd 709a 1abe
00000360: 7b65 fa3d d88e b93d c853 76bd f2d3 bbbd
00000370: 340a 0c3e d979 67bc 50eb 1fbd 22b8 0dbd
00000380: 6ab5 1ebd 26d8 da3d 7091 f1bb bc1e e13d
00000390: e3b5 993d bd3b 683d d294 833b e4f9 4a39
000003a0: 8cdc 09be 9176 00bd b9dc 0f3e 5a35 a73d
000003b0: 43b5 ef3d f1f1 4bbd 2991 d6bc 2e6b c9bd
000003c0: 6328 babc 9520 0abe 13a5 f23d cb90 01bd
000003d0: 523c 7abc 30a9 8f3d 93e7 d8bd 195c 073e
000003e0: 861f 84bd b679 bd3c 7f86 21be 09ee 75bc
000003f0: d68b d03d fed2 673c 0de5 6c3d 3dfc 143d

fc4.bias f4 [64]
-0.068868876 0.16425775 0.16131327 -0.099684045 0.17200167 -0.11461398 0.13606483 0.033049956
0.067940205 -0.06660369 -0.04507638 0.06109155 0.13580382 -0.008743699 0.036387734 -0.037623942
-0.0054053366 -0.11258105 -0.11112463 0.13106611 -0.053366028 0.16558805 0.14473136 0.04929014
0.009860187 -0.05524034 0.13454445 -0.020501062 -0.040506065 0.045935113 -0.08812605 0.15976281
-0.11410717 0.13992007 -0.11295447 0.0018593862 0.008825127 -0.06726417 0.119870864 0.055109832
-0.1090652 -0.067408144 0.05424598 -0.015250644 -0.07264526 0.0011184688 0.13085853 0.008194129
0.035599794 0.13905212 -0.050243467 0.14505343 -0.056355715 -0.09673407 0.1428832 0.0024605861
0.104649134 -0.10358231 0.026137365 0.0570694 -0.020263387 0.016573653 -0.035165723 0.10304312
00000000: 200b 8dbd 2f33 283e 4e2f 253e 2627 ccbd
00000010: 3521 303e bcba eabd 9454 0b3e 645f 073d
00000020: 3c24 8b3d 8467 88bd 03a2 38bd 223b 7a3d
00000030: 2810 0b3e bb41 0fbc 4e0b 153d 901b 1abd
00000040: 401f b1bb e590 e6bd 4f95 e3bd 3236 063e
00000050: 5696 5abd ea8f 293e 7534 143e 75e4 493d
00000060: 9f8c 213c b243 62bd 05c6 093e d8f1 a7bc
00000070: b0e9 25bd 7526 3c3d 6e7b b4bd dd98 233e
00000080: 05b1 e9bd 3547 0f3e ac54 e7bd a6b6 f33a
00000090: 4497 103c ccc1 89bd db7e f53d d9ba 613d
000000a0: 935d dfbd 480d 8abd 0831 5e3d d6dd 79bc
000000b0: 0ac7 94bd 9699 923a c7ff 053e ab40 063c
000000c0: 17d1 113d ae63 0e3e 18cc 4dbd e388 143e
000000d0: 40d5 66bd 831c c6bd f94f 123e c941 213b
000000e0: 4952 d63d f622 d4bd 071e d63c 9ac1 693d
000000f0: 67ff a5bc 78c5 873c ef09 10bd 4508 d33d

fc5.weight f4 [32, 64]
0.02356298 0.047693707 -0.14523992 0.13805634 0.0054380763 0.056917675 -0.09616148 0.12696843
-0.09344753 -0.008212819 -0.03780606 -0.15465677 -0.06934879 0.016941046 -0.08962394 0.09558655
-0.07633723 -0.08526813 0.086785264 -0.14748974 -0.039890505 0.054254133 0.034375224 0.0361614
0.018169757 -0.023799915 0.08779939 0.06375314 0.09462557 0.123859175 0.047398422 -0.08271555
0.022607036 0.035839118 -0.006524892 -0.09387348 -0.0050219363 0.0042346814 -0.019741902 0.13889775
-0.025473906 -0.07026998 0.06977658 0.056233667 0.015771475 -0.0020586234 0.011238262 0.0069534592
-0.1311156 -0.09622371 -0.06305339 0.03177413 -0.0022871785 -0.052829646 -0.04275577 -0.087048955
-0.04790013 0.007584374 0.022370772 0.022842294 0.09146448 -0.058341432 0.09373547 -0.12907337
0.022166155 0.011998053 0.17626886 -0.060127355 0.008106085 -0.073892936 -0.030773446 -0.21841218
0.16711713 -0.012570615 -0.011263824 0.11449585 -0.05834188 -0.2110375 0.09937417 -0.08430184
0.07899738 0.018352816 -0.037529856 -0.034560867 0.0117202755 0.16394539 -0.017540848 0.0013552234
-0.15652774 -0.14962168 0.034325868 -0.10256411 -0.1799023 -0.10888456 0.059308622 0.11090661
-0.16778404 0.007995804 -0.08826312 0.12693377 0.05338449 -0.018940652 0.088782005 -0.1266523
0.01716738 -0.061621 0.01663207 -0.040088806 -0.063231714 -0.2157248 -0.055846542 0.021814544
0.0065724365 0.104491755 -0.034099802 -0.0238369 -0.13199614 -0.08052403 0.07975436 0.15194723
0.10086577 -0.16797762 0.12296909 0.060911916 0.01982598 0.116524376 -0.08955858 0.15925653
0.037115626 -0.117677145 -0.14588457 0.13858286 -0.13620682 0.1306274 0.07202865 -0.055438653
-0.07156757 0.07828088 0.0045277597 -0.0659704 0.05086895 0.0025163381 -0.1148521 0.14075977
-0.0043018768 0.010699997 -0.057885613 0.08538031 0.12762432 -0.059328936 0.03323611 -0.067460746
0.0073614162 -0.012555781 -0.114177346 -0.02658304 0.08378136 0.10253426 0.04341015 0.06970063
0.14323092 -0.034329448 0.13490139 -0.1351496 0.00013842052 0.12888885 0.033230543 0.12681931
0.15412469 0.011217559 -0.14725146 0.02849789 -0.037863586 -0.032312486 -0.116925925 -0.013434404
0.049525604 -0.04922535 0.06748549 0.07555115 -0.0667146 -0.036460415 -0.010116199 -0.021844497
-0.009136788 0.16116387 -0.05843064 -0.00012946341 0.10891406 -0.09054652 -0.052647915 -0.039725885
-0.058738697 0.011569911 -0.14718583 -0.08900156 -0.01738015 -0.08005269 -0.0076009864 0.020331932
0.066629946 -0.087812774 0.08335517 -0.11319426 0.016394224 -0.08410003 -0.11154208 0.10087564
-0.009743752 0.035357613 -0.020605171 -0.14355187 0.12627687 -0.12910996 -0.1356937 0.031469226
0.048814934 0.09942749 -0.14186637 0.051716324 0.11803031 0.09708554 -0.12706363 -0.13032603
0.004077631 0.07199952 -0.063869305 -0.13433628 -0.10239918 -0.015314974 -0.09753397 0.05375872
0.011564123 0.14663532 -0.12776038 -0.043902762 0.089275494 -0.010886967 0.0040998636 0.03663599
-0.017515158 -0.013498689 0.071873784 -0.088677175 -0.03723648 -0.07454263 -0.050895944 -0.0018704477
-0.102867775 -0.054681167 0.07112138 0.038367756 -0.00046355283 -0.041417096 0.069795504 -0.006018453
00000000: 2707 c13c 7a5a 433d c6b9 14be a45e 0d3e
00000010: e431 b23b 8222 693d 4ff0 c4bd 0304 023e
00000020: 6b61 bfbd 0f8f 06bc 87da 1abd 585e 1ebe
00000030: bd06 8ebd f3c7 8a3c c28c b7bd e2c2 c33d
00000040: b256 9cbd 0fa1 aebd 79bc b13d 8d07 17be
00000050: 3a64 23bd 9539 5e3d 09cd 0c3d fa1d 143d
00000060: bed8 943c 0af8 c2bc 2bd0 b33d 0291 823d
00000070: 0dcb c13d e1a9 fd3d d924 423d c566 a9bd
00000080: 6432 b93c 0acc 123d c3ce d5bb bd40 c0bd
00000090: 0e8f a4bb 15c3 8a3b c5b9 a1bc 363b 0e3e
000000a0: a7ae d0bc b5e9 8fbd 06e7 8e3d 4655 663d
000000b0: 2e33 813c f8e9 06bb b020 383c d8d9 e33b
000000c0: 2b43 06be f010 c5bd 2322 81bd 9725 023d
000000d0: 7de4 15bb e663 58bd ad20 2fbd b946 b2bd
000000e0: ed32 44bd 5786 f83b e942 b73c c31f bb3c
000000f0: bb51 bb3d 6df7 6ebd 62f8 bf3d cf2b 04be
00000100: cc95 b53c 7b93 443c d37f 343e 1a48 76bd
00000110: 62cf 043c 2e55 97bd 9818 fcbc 71a7 5fbe
00000120: c120 2b3e fbf4 4dbc e78b 38bc cd7c ea3d
00000130: e5f7 6ebd 371a 58be af84 cb3d 71a6 acbd
00000140: 61c9 a13d a558 963c e8b8 19bd b28f 0dbd
00000150: 6606 403c 4de1 273e d3b1 8fbc c0a1 b13a
00000160: cf48 20be 6d36 19be 4899 0c3d 220d d2bd
00000170: 4f38 38be defe debd 99ed 723d 0123 e33d
00000180: 94cf 2bbe d500 033c 4bc3 b4bd edfa 013e
00000190: b2a9 5a3d 6d29 9bbc 57d3 b53d 24b1 01be
000001a0: 9ba2 8c3c 4d66 7cbd fb3f 883c 2934 24bd
000001b0: a17f 81bd f6e6 5cbe 58bf 64bd 6ab4 b23c
000001c0: 985d d73b c6ff d53d 3cac 0bbd 9a45 c3bc
000001d0: ff29 07be c8e9 a4bd 4156 a33d 0e98 1b3e
000001e0: b692 ce3d 5302 2cbe 38d7 fb3d c67e 793d
000001f0: 186a a23c 55a4 ee3d 7d6a b7bd 2514 233e
00000200: 8e06 183d b700 f1bd c462 15be aae8 0d3e
00000210: cd79 0bbe 30c3 053e c283 933d a413 63bd
00000220: 0592 92bd ba51 a03d 9a5d 943b 7d1b 87bd
00000230: f65b 503d 26e9 243b 9437 ebbd 5423 103e
00000240: c2f6 8cbb 0a4f 2f3c 7719 6dbd dfdb ae3d
00000250: f3af 023e e602 73bd 9622 083d dc28 8abd
00000260: 0938 f13b c3b6 4dbc d0d5 e9bd adc4 d9bc
00000270: 9095 ab3d 7bfd d13d d7ce 313d 34bf 8e3d
00000280: 20ab 123e 099d 0cbd 9723 0a3e a864 0abe
00000290: fa24 1139 70fb 033e c01c 083d ecdc 013e
000002a0: ddd2 1d3e dac9 373c 16c9 16be 6874 e93c
000002b0: d916 1bbd 195a 04bd dc76 efbd f91b 5cbc
000002c0: 5cdb 4a3d 85a0 49bd d535 8a3d 90ba 9a3d
000002d0: aaa1 88bd 8457 15bd 6abe 25bc 3bf3 b2bc
000002e0: 77b2 15bc 2408 253e f754 6fbd 92c0 07b9
000002f0: 560e df3d 7470 b9bd 57a5 57bd 9cb7 22bd
00000300: fd97 70bd b98f 3d3c e2b7 16be 7346 b6bd
00000310: d160 8ebc aaf2 a3bd b211 f9bb 278f a63c
00000320: 4875 883d 2fd7 b3bd 1eb6 aa3d 64d2 e7bd
00000330: 2e4d 863c a33c acbd 2d70 e4bd e397 ce3d
00000340: 42a4 1fbc 25d3 103d 2dcc a8bc 43ff 12be
00000350: b94e 013e 6735 04be 4af3 0abe e0e5 003d
00000360: 2bf2 473d a4a0 cb3d 6b45 11be 7fd4 533d
00000370: e0b9 f13d c9d4 c63d f81c 02be 3074 05be
00000380: a69d 853b 7c74 933d e9cd 82bd 738f 09be
00000390: a9b6 d1bd a8eb 7abc e4bf c7bd 1b32 5c3d
000003a0: 7377 3d3c 9227 163e 9ed3 02be 62d3 33bd
000003b0: 12d6 b63d 405f 32bc 2658 863b 9f0f 163d
000003c0: f37b 8fbc 9b29 5dbc 9032 933d 619c b5bd
000003d0: 4785 18bd cea9 98bd 4478 50bd cf29 f5ba
000003e0: 57ac d2bd 5cf9 5fbd 16a8 913d 8227 1d3d
000003f0: 0209 f3b9 f9a4 29bd f2f0 8e3d 7136 c5bb

fc5.bias f4 [32]
-0.023081241 -0.029852256 0.005528075 0.0790584 -0.05751359 0.13035128 0.15389402 0.027793707
-0.051445663 -0.12992626 0.20667394 -0.06917002 0.091515444 0.006975319 -0.05942365 0.05074535
-0.02697438 0.16992638 0.0674579 0.03326589 -0.027522536 0.095557064 0.10999257 -0.11693029
-0.105984144 0.0836142 -0.13416661 0.01892316 0.16754465 0.10640346 0.10077261 0.042767014
00000000: df14 bdbc b88c f4bc db24 b53b 5fe9 a13d
00000010: 5f93 6bbd ce7a 053e 6596 1d3e a1af e33c
00000020: b0b8 52bd 640b 05be 55a2 533e 03a9 8dbd
00000030: 736c bb3d 3791 e43b 3766 73bd 5bda 4f3d
00000040: 60f9 dcbc 2e01 2e3e 5e27 8a3d d041 083d
00000050: f176 e1bc 6cb3 c33d c943 e13d 2679 efbd
00000060: 370e d9bd ec3d ab3d f962 09be be04 9b3c
00000070: d390 2b3e 0fea d93d df61 ce3d 772c 2f3d

fc6.weight f4 [1, 32]
-0.19111502 0.10677168 -0.10629057 -0.16433203 -0.17273135 0.22004537 0.12399085 0.17289318
0.026480787 -0.15635328 0.2062915 -0.27506307 -0.12973109 0.06548718 -0.15617098 0.05112796
-0.27461937 0.0600063 -0.15180305 0.04319544 -0.1320043 -0.26190063 0.10338082 -0.13912724
-0.10756418 0.23281051 -0.15601577 0.17190504 0.20309235 0.22895005 0.18457235 0.11911407
00000000: a8b3 43be 1cab da3d dfae d9bd a846 28be
00000010: 7de0 30be 9353 613e eaee fd3d e90a 313e
00000020: 3cee d83c 131b 20be 143e 533e 11d5 8cbe
00000030: 3ad8 04be 251e 863d 49eb 1fbe 8d6b 513d
00000040: e99a 8cbe 2bc9 753d 4272 1bbe b4ed 303d
00000050: 232c 07be d717 86be 53b9 d33d 5f77 0ebe
00000060: 9c4a dcbd e165 6e3e 99c2 1fbe e007 303e
00000070: 71f7 4f3e e271 6a3e 8900 3d3e 14f2 f33d
